PJ2/models/feedforward_model.pth (torch, 942823 bytes, 6 tensors)

fc1.weight f4 [256, 784]
-0.007825128 0.0072068106 -0.01738768 0.02097438 0.031483676 -0.026201006 0.031042721 0.006684261
0.026386032 0.0048368066 0.017221004 -0.005042536 0.045196887 0.038781065 -0.0052959933 0.009651329
-0.016454881 -0.0041883164 -0.0145056555 0.023691822 -0.028191794 -0.016464656 -0.0100848125 -0.021474017
0.003370826 -0.035274256 0.0322539 -0.030338153 0.027572408 0.0059435414 -0.011596591 0.022069642
0.0037998052 0.03429687 0.005874008 -0.015145445 -0.0076068365 -0.0058785677 0.10641664 0.062161185
0.007029832 -0.040919684 0.044381976 -0.03751635 -0.058596186 -0.033934984 0.014505436 0.016892565
-0.026424194 0.032479793 -0.009207791 -0.02342368 0.011295042 -0.00062128477 0.027950296 -0.025375487
0.0022487044 -0.024376435 0.013839315 -0.09405743 -0.080471285 0.0743249 0.14629923 0.060021337
0.09283224 0.13464324 0.18317196 0.09937396 -0.018561821 -0.09688698 0.061639987 0.03245618
-0.021995649 0.08952205 0.05655662 -0.0039927587 -0.007892049 0.04565814 0.03781315 0.025495498
0.06682279 0.028334612 0.020430213 -0.027748859 -0.018023206 0.010888445 -0.023553718 -0.051163655
-0.016979493 0.18915467 -0.0041830735 0.06841678 -0.02001537 -0.089269765 -0.025044274 0.0050432743
-0.085300446 -0.11943112 -0.0004125986 -0.033354476 -0.05164442 -0.057695396 -0.035638418 0.021797396
-0.038494207 -0.0075071594 -0.004500093 -0.081897154 0.034640875 0.10298161 0.09857466 -0.011887709
0.005584683 -0.02303677 -0.072766826 0.009990819 -0.032100935 0.02459111 0.111424536 0.03284991
-0.008446266 -0.045399528 0.03406031 -0.023732828 0.058475062 0.0085835345 0.018433668 -0.0025962256
-0.15187208 -0.10859126 -0.0477612 -0.021163406 0.033680297 0.0518184 0.027620878 0.03953067
0.17585193 0.120720394 0.040553458 0.017962772 -0.0061669056 0.007459632 0.02125706 0.13202897
0.18284312 -0.02803011 0.086337216 0.06708753 0.05287692 -0.020694667 0.03729493 0.008159787
0.10978083 -0.026576664 -0.006292904 -0.073312566 0.018622926 -0.070524365 -0.0135830585 -0.0940388
-0.019406931 -0.048926473 -0.046662215 0.18274182 0.21132551 0.20402592 0.0005264562 0.04716263
0.019941475 0.06356933 -0.01818861 0.1581332 0.24279366 0.23022632 0.2549965 0.09236124
0.032792576 -0.008365695 -0.12086139 -0.06325073 0.03603506 -0.021590015 0.07425991 0.05760832
0.013713991 -0.009813745 -0.09591978 -0.06536835 -0.05386385 -0.12673144 0.041723724 0.13783824
0.18773574 0.19137119 0.07912039 0.1081191 -0.03243774 0.06980094 -0.008958488 0.19708699
0.24971175 0.2740366 0.19306651 -0.039022006 -0.034061674 -0.08603483 -0.12348426 0.036796447
-0.050483827 0.045719855 0.05119292 0.04414923 -0.011870023 -0.077489585 -0.08385004 -0.008598059
-0.011494003 -0.0723336 -0.020676723 0.0116023095 0.00968098 0.021321002 0.117361486 0.12068118
-0.12893279 -0.09553334 -0.13772342 0.07873543 0.15373474 0.17932591 0.11851995 -0.07999942
-0.14285754 -0.08425343 -0.13388024 -0.029620158 -0.0033542304 0.02383583 0.019778244 -0.10000908
-0.18044548 -0.19592223 -0.10123823 0.055480894 -0.008063354 -0.06050982 -0.024583781 -0.16512439
-0.12108827 -0.1429996 0.07982082 0.015241632 -0.004762168 -0.07020269 -0.038691234 0.008445223
00000000: f734 00bc 1c27 ec3b 9c70 8ebc 77d2 ab3c
00000010: 07f5 003d 7ea3 d6bc 4e4d fe3c a507 db3b
00000020: 8527 d83c 137e 9e3b 1013 8d3c dc3b a5bb
00000030: 5f20 393d e5d8 1e3d 038a adbb 9c20 1e3c
00000040: 63cc 86bc 253e 89bb 21a9 6dbc 5a15 c23c
00000050: 7af2 e6bc e3e0 86bc c53a 25bc 47ea afbc
00000060: 13e9 5c3b bd7b 10bd aa1c 043d b887 f8bc
00000070: 88df e13c 0ac2 c23b a1ff 3dbc 65cb b43c
00000080: 2706 793b e07a 0c3d c07a c03b 9a24 78bc
00000090: c542 f9bb 00a1 c0bb f8f0 d93d ba9c 7e3d
000000a0: 815a e63b 669b 27bd e0c9 353d bfaa 19bd
000000b0: 8e02 70bd 69ff 0abd 35a8 6d3c 4762 8a3c
000000c0: 8d77 d8bc 8809 053d 46dc 16bc 04e3 bfbc
000000d0: d70e 393c b7dd 22ba 05f8 e43c 41e0 cfbc
000000e0: 005f 133b 17b1 c7bc 4bbe 623c 2fa1 c0bd
000000f0: 21ce a4bd a737 983d 77cf 153e efd8 753d
00000100: d41e be3d ebdf 093e 6e91 3b3e 9384 cb3d
00000110: f60e 98bc ae6c c6bd 367a 7c3d c5f0 043d
00000120: 3830 b4bc 5657 b73d eaa7 673d b0d5 82bb
00000130: a74d 01bc 0804 3b3d f6e1 1a3d efdb d03c
00000140: 63da 883d fd1d e83c 435d a73c 9351 e3bc
00000150: 67a5 93bc 7365 323c baf3 c0bc fb90 51bd
00000160: 9418 8bbc c3b1 413e 2a12 89bb 191e 8c3d
00000170: 46f7 a3bc 11d3 b6bd a629 cdbc 0d42 a53b
00000180: 00b2 aebd 4e98 f4bd 0c52 d8b9 b49e 08bd
00000190: 1989 53bd 0252 6cbd 97f9 11bd 7490 b23c
000001a0: 1aac 1dbd 9efe f5bb 8475 93bb b2b9 a7bd
000001b0: 97e3 0d3d 06e8 d23d 83e1 c93d aac4 42bc
000001c0: b7ff b63b 9cb7 bcbc c606 95bd 88b0 233c
000001d0: 457c 03bd 4c73 c93c 8c32 e43d a18d 063d
000001e0: 3562 0abc dbf4 39bd d382 0b3d 596b c2bc
000001f0: 8c83 6f3d f4a1 0c3c 3402 973c 7025 2abb
00000200: 5b84 1bbe 1865 debd 40a1 43bd e15e adbc
00000210: 5af4 093d 883f 543d 2e45 e23c e9ea 213d
00000220: 8712 343e 413c f73d 621b 263d aa26 933c
00000230: c113 cabb ee6f f43b 4923 ae3c 9a32 073e
00000240: 3a3b 3b3e 679f e5bc 91d1 b03d 3065 893d
00000250: 7895 583d dd87 a9bc 92c2 183d a1b0 053c
00000260: c6d4 e03d 4eb7 d9bc b434 cebb e624 96bd
00000270: 1b8f 983c 146f 90bd 7a8b 5ebc 6a97 c0bd
00000280: 49fb 9ebc 2067 48bd e120 3fbd ac20 3b3e
00000290: b765 583e 2cec 503e e101 0a3a 9a2d 413d
000002a0: 4e5c a33c a330 823d 4800 95bc abed 213e
000002b0: e79e 783e 73c0 6b3e e78e 823e e427 bd3d
000002c0: 8251 063d 4510 09bc 2d86 f7bd 9989 81bd
000002d0: 8099 133d 8bdd b0bc 9415 983d b4f6 6b3d
000002e0: a6b0 603c d4c9 20bc 9771 c4bd d7df 85bd
000002f0: 57a0 5cbd e3c5 01be 7fe6 2a3d 7825 0d3e
00000300: cc3d 403e cff6 433e df09 a23d 8c6d dd3d
00000310: 70dd 04bd ccf3 8e3d 9fc6 12bc 2cd1 493e
00000320: 70b4 7f3e 864e 8c3e 3ab3 453e 8ad5 1fbd
00000330: 4184 0bbd 0733 b0bd 51e5 fcbd dfb7 163d
00000340: 21c8 4ebd be44 3b3d abaf 513d d3d5 343d
00000350: 7c7a 42bc dcb2 9ebd 92b9 abbd e0de 0cbc
00000360: 5851 3cbc a323 94bd 3b62 a9bc 9d17 3e3c
00000370: f99c 1e3c 62a9 ae3c 385b f03d b227 f73d
00000380: f506 04be fca6 c3bd 5e07 0dbe 0b40 a13d
00000390: a46c 1d3e 36a1 373e 96ba f23d bcd6 a3bd
000003a0: 3f49 12be 108d acbd e717 09be f9a5 f2bc
000003b0: a6d2 5bbb 5c43 c33c fc05 a23c 8fd1 ccbd
000003c0: b3c6 38be d69f 48be fd55 cfbd ef3f 633d
000003d0: 281c 04bc 25d9 77bd ed63 c9bc 5e16 29be
000003e0: 20fd f7bd 7d6e 12be 1979 a33d 0ab8 793c
000003f0: f60b 9cbb 6ec6 8fbd b37a 1ebd d55d 0a3c

fc1.bias f4 [256]
-0.0062744278 -0.012046932 -0.011659122 -0.066459455 0.025417741 -0.008160222 -0.040141977 -0.041229554
0.027652768 0.12924373 0.068142764 -0.044258974 0.057691995 0.086854614 0.07465294 -0.04655069
0.13559486 -0.028256685 -0.0027415757 0.053568967 -0.03696427 0.0074593215 -0.0006760077 0.053082243
-0.022032786 0.022590226 0.026206242 0.08753839 -0.11211967 0.048502687 0.1647035 0.003294492
0.0001709495 0.040486295 -0.007893306 0.020154173 -0.03217502 0.015214944 -0.06873567 0.05066865
0.051924784 -0.05126298 0.09978975 0.028231561 -0.14157958 -0.00568418 0.24576096 0.09710234
0.043468107 0.0059237075 0.010107234 0.031558815 0.02188284 0.04779018 -0.061476756 0.07280654
0.18898858 0.015537637 -0.017514998 -0.020451132 0.108696975 0.016738059 0.15300508 -0.040064987
-0.018769624 0.06679328 0.14555018 -0.022498984 0.029334342 -0.021490408 -0.1662637 0.019229744
0.057193708 -0.012628615 -0.037568834 0.037132762 -0.0709204 -0.078400694 0.026400581 0.099201284
0.013415669 0.0023271372 0.045308437 -0.08251732 -0.018288992 0.056396578 -0.0065597724 0.029499153
0.05454606 -0.05801436 0.047416165 -0.050569523 -0.0628491 0.0716332 -0.051184434 0.022604542
0.046357967 -0.024066212 -0.03465006 0.0063728346 0.028092528 0.022324974 -0.007703541 -0.002342554
0.097241074 -0.034819465 0.023142528 -0.015544313 0.058450855 0.03825396 0.105145045 0.04083751
0.016236255 -0.09182258 0.023297109 0.02580059 0.010788974 -0.0071293805 0.037832737 0.026625907
-0.037132934 0.018235514 0.0057237153 -0.09912503 0.08922856 0.016378826 -0.0032715998 -0.06253704
0.07800189 0.105163015 0.049631175 0.09706124 0.06446785 -0.07522216 0.015194417 0.019648869
0.02163993 0.022304643 -0.003828336 -0.05518884 -0.14290969 -0.0063142944 0.033737153 -0.113408454
0.07321318 -0.07041608 0.09086667 0.0041261115 0.0017943742 -0.087234214 -0.0586293 0.011356135
0.0834373 0.07278274 0.0016103043 0.06410233 0.056075126 -0.07187339 0.00069396547 0.0062255883
0.043588996 0.09027008 -0.0146093285 0.07069528 0.022002168 0.0396258 -0.056118455 -0.06862981
-0.040978696 0.020102294 -0.07491485 -0.089387245 0.06368195 -0.008628296 0.012816134 -0.07810803
-0.06898195 -0.0039288867 0.05865062 -0.061111957 0.031805906 -0.08037096 0.03226521 0.007651235
0.10633006 0.07282562 0.09563196 0.0015552519 0.050212216 -0.02811439 -0.0068792133 -0.054549925
0.030156739 0.017773807 0.04224243 0.010433619 0.11636536 -0.03727137 -0.032351278 0.12183436
0.016239153 0.089291416 0.07040789 0.022148743 0.02888344 0.021632412 -0.11155646 -0.043476958
-0.0623321 -0.053920634 0.0717978 -0.031114595 -0.014566103 -0.026407443 -0.031249635 0.014483559
0.23305635 0.053867143 0.06900635 -0.07731649 -0.03207091 -0.08832828 0.013849944 0.11872644
-0.04845299 0.14808087 0.121954635 0.019042581 -0.013383951 0.023786927 0.09228145 -0.0051780744
0.031033657 0.114854425 -0.096381694 0.048598833 -0.07090315 0.13638075 -0.045941066 -0.08192093
0.04539248 0.06414599 -0.13107222 0.07110433 -0.08092842 0.16484994 -0.041316833 0.05129435
0.03871788 0.064069204 0.008743868 0.02520399 0.056247294 0.27911684 0.04693645 -0.017895175
00000000: b799 cdbb 7f60 45bc e705 3fbc e51b 88bd
00000010: de38 d03c 74b2 05bc ea6b 24bd 52e0 28bd
00000020: 0f88 e23c 7858 043e 6f8e 8b3d e648 35bd
00000030: 714e 6c3d d5e0 b13d a4e3 983d f0ab 3ebd
00000040: 61d9 0a3e 907a e7bc 02ac 33bb 226b 5b3d
00000050: d967 17bd 536d f43b 1c36 31ba c46c 593d
00000060: 1a7e b4bc 230f b93c 79ae d63c 5447 b33d
00000070: ff9e e5bd c1aa 463d 09a8 283e 67e8 573b
00000080: e840 3339 f5d4 253d ed52 01bc 5d1a a53c
00000090: f4c9 03bd 1a48 793c 49c5 8cbd ee89 4f3d
000000a0: 15af 543d 21f9 51bd 925e cc3d e045 e73c
000000b0: 3dfa 10be 5c42 babb c3a8 7b3e 97dd c63d
000000c0: 9d0b 323d a91b c23b d098 253c d143 013d
000000d0: a443 b33c a3bf 433d 0dcf 7bbd 981b 953d
000000e0: 3986 413e 9391 7e3c 9d7b 8fbc 2289 a7bc
000000f0: 859c de3d 411e 893c 5dad 1c3e 2f1b 24bd
00000100: c1c2 99bc eaca 883d 1b0b 153e ca4f b8bc
00000110: 934e f03c a70c b0bc 0841 2abe b287 9d3c
00000120: f343 6a3d 40e8 4ebc c7e1 19bd 8618 183d
00000130: b73e 91bd 8b90 a0bd 0846 d83c 0b2a cb3d
00000140: 65cd 5b3c e282 183b 5795 393d d7fe a8bd
00000150: ccd2 95bc 1900 673d 5cf3 d6bb 35a8 f13c
00000160: b06b 5f3d 77a0 6dbd 7437 423d fd21 4fbd
00000170: 07b7 80bd 6db4 923d c5a6 51bd 292d b93c
00000180: dae1 3d3d 8126 c5bc 39ed 0dbd 36d3 d03b
00000190: 4d22 e63c dde2 b63c fc6d fcbb 8985 19bb
000001a0: 5426 c73d db9e 0ebd 6695 bd3c 93ad 7ebc
000001b0: 2a6a 6f3d 2fb0 1c3d 4956 d73d 3c45 273d
000001c0: e501 853c 7a0d bcbd 94d9 be3c c25b d33c
000001d0: 3dc4 303c 949d e9bb 80f6 1a3d 931e da3c
000001e0: b418 18bd a562 953c 018e bb3b 1002 cbbd
000001f0: 77bd b63d e32c 863c 5668 56bb 6b13 80bd
00000200: 74bf 9f3d b55f d73d 0f4a 4b3d 0bc8 c63d
00000210: b807 843d 130e 9abd 01f2 783c aaf6 a03c
00000220: 3946 b13c 3ab8 b63c d2e4 7abb b10d 62bd
00000230: eb56 12be 24e8 cebb f82f 0a3d b142 e8bd
00000240: cbf0 953d 4e36 90bd 4e18 ba3d 5534 873b
00000250: 3531 eb3a daa7 b2bd 4725 70bd 150f 3a3c
00000260: 2de1 aa3d 1e0f 953d d910 d33a 1548 833d
00000270: 08af 653d 5b32 93bd 3ceb 353a 0500 cc3b
00000280: 608a 323d 85df b83d f75b 6fbc b0c8 903d
00000290: e43d b43c aa4e 223d 77dc 65bd c98d 8cbd
000002a0: 47d9 27bd 91ad a43c f56c 99bd a910 b7bd
000002b0: af6b 823d b25d 0dbc c3fa 513c 1af7 9fbd
000002c0: 6946 8dbd e4bd 80bb a23b 703d 8850 7abd
000002d0: e946 023d 8899 a4bd 8628 043d 36b7 fa3b
000002e0: 93c3 d93d 9925 953d b0da c33d 98d9 cb3a
000002f0: 53ab 4d3d 2650 e6bc 066b e1bb be6f 5fbd
00000300: 440b f73c 609a 913c 6606 2d3d c5f1 2a3c
00000310: f650 ee3d dda9 18bd c682 04bd 4b84 f93d
00000320: f907 853c 6bde b63d 0332 903d 4871 b53c
00000330: f79c ec3c 7536 b13c b777 e4bd e514 32bd
00000340: f24f 7fbd e2db 5cbd ba0a 933d 09e4 febc
00000350: aaa6 6ebc 6c54 d8bc 3cff ffbc 734c 6d3c
00000360: 53a6 6e3e cba3 5c3d 3453 8d3d 1c58 9ebd
00000370: c95c 03bd 75e5 b4bd e0ea 623c d926 f33d
00000380: a476 46bd 83a2 173e 5ac3 f93d 30ff 9b3c
00000390: 5c48 5bbc cddc c23c 0ffe bc3d d6ac a9bb
000003a0: 4c3a fe3c cc38 eb3d c463 c5bd 920f 473d
000003b0: ac35 91bd 65a7 0b3e b32c 3cbd 29c6 a7bd
000003c0: 77ed 393d f95e 833d cc37 06be 269f 913d
000003d0: cdbd a5bd 6cce 283e d73b 29bd 061a 523d
000003e0: a496 1e3d b736 833d 7142 0f3c 9978 ce3c
000003f0: 9063 663d 67e8 8e3e 6f40 403d e798 92bc

fc2.weight f4 [128, 256]
0.016551904 -0.1531621 -0.061715547 0.07678644 0.21681987 0.015034128 0.030188646 -0.012833752
-0.056238595 0.011918354 0.055843946 0.00410885 -0.07777666 0.13242957 -0.0046228627 -0.025133055
0.2602339 0.080121264 0.028926538 0.025418341 -0.0188836 -0.013705692 -0.0014572546 -0.38247725
-0.034944672 0.01724195 -0.22830178 -0.1475361 0.04064663 0.22699668 -0.10773429 -0.09512388
0.121949986 0.078332536 -0.029544992 0.061408866 0.08039196 -0.18684216 0.22696276 -0.060743824
-0.1777589 0.045953903 0.108026735 -0.11985971 -0.09592321 0.026069194 0.27662483 0.16991055
0.31960398 -0.037798293 -0.2566638 0.23544341 0.03963672 -0.19579153 0.035930466 -0.16777383
-0.18603085 0.09038706 -0.011188525 -0.23044708 0.2218095 0.10848409 0.32049558 0.067377925
0.0131884655 -0.25332955 -0.018213106 0.05323625 -0.0048624207 -0.19604017 -0.020930454 0.14460532
0.021956136 0.04685657 -0.026173439 -0.027311875 0.020165872 0.07985923 -0.002130533 0.047825396
0.13725647 -0.04397601 -0.15710348 0.027087394 -0.010598051 0.12535177 -0.0037118406 0.13715251
0.061661474 -0.08255197 0.097223826 0.06511694 0.0020217379 0.26950678 -0.041433226 0.05796843
0.019073773 -0.0151972305 -0.042276025 -0.14913425 0.16595297 -0.16217314 0.12103146 0.19488631
0.031659152 0.054740205 -0.0012122178 0.010311594 0.10562495 0.12729815 0.084751636 0.007017304
-0.046695404 -0.08733165 0.02717011 0.09889808 -0.042324986 -0.12180173 0.011522835 -0.051751003
-0.078047805 0.06444891 -0.13139215 0.04316269 0.09572699 -0.09324905 0.05678653 -0.007602502
0.016955288 0.1969898 0.0017305717 -0.068194166 0.030895408 -0.032524947 -0.03917431 0.10233799
0.056872796 0.038385905 0.29277784 0.056271605 -0.008670504 -0.13067444 -0.08665697 -0.2253092
0.05694529 -0.016341565 -0.0028593682 0.076697804 -0.05103115 -0.043453597 -0.01650397 -0.046595618
0.1780066 -0.099766485 -0.19202492 0.03873607 0.042539116 -0.046761155 0.12361998 -0.29309928
0.15733178 -0.0070193326 0.048084207 -0.026253808 0.028678712 0.0052176635 -0.24291743 -0.0516098
0.07407436 -0.04596077 0.06859875 0.04744925 0.0097769825 0.16093719 -0.0072083897 -0.09975934
-0.17307924 0.16726574 0.13799816 0.092961885 0.08947116 0.14434785 0.03037463 0.056567088
-0.08185032 0.15108123 0.048614487 0.015368936 0.19391227 0.003284044 0.02139603 -0.064730056
-0.0877325 0.19779423 0.06370372 -0.0565649 0.119870104 0.011150362 0.13208634 0.01716257
-0.037582498 0.042997915 0.25307956 0.23630637 0.12652756 0.105269924 0.10362371 -0.08817074
-0.0028605387 -0.0066912426 -0.0053692795 -0.041365072 0.07633829 0.02868394 -0.016759789 0.016546512
0.17571412 0.076020025 0.09007765 -0.059530184 0.025576701 -0.24956931 0.011391449 0.0050388128
-0.05309821 0.06155366 0.08303918 0.016985903 0.0889591 -0.026915235 -0.11235179 -0.043393224
0.0065999418 0.022200793 0.0024783616 0.043540105 0.15477094 0.024934206 -0.028092267 -0.09244365
-0.007689272 -0.0739176 -0.010256929 0.06995971 0.01957307 0.09661104 -0.08488955 -0.11671505
-0.027118074 -0.33532035 0.04265891 -0.05816913 0.02215422 0.10412379 0.13816874 -0.033790927
00000000: dc97 873c 87d6 1cbe 71c9 7cbd 3642 9d3d
00000010: 0706 5e3e b451 763c 2e4e f73c a844 52bc
00000020: 715a 66bd 3345 433c 9fbc 643d 88a3 863b
00000030: 5f49 9fbd 9e9b 073e 627b 97bb d6e3 cdbc
00000040: 613d 853e 9e16 a43d 59f7 ec3c 203a d03c
00000050: c8b1 9abc d78d 60bc 5a01 bfba 0fd4 c3be
00000060: 2522 0fbd fd3e 8d3c f1c7 69be b413 17be
00000070: 157d 263d d171 683e cca3 dcbd 4fd0 c2bd
00000080: eac0 f93d cf6c a03d 5708 f2bc dd87 7b3d
00000090: 8aa4 a43d 8d53 3fbe ed68 683e 84ce 78bd
000000a0: 6e06 36be 293a 3c3d 1f3d dd3d 0279 f5bd
000000b0: 6373 c4bd 108f d53c c5a1 8d3e 08fd 2d3e
000000c0: 22a3 a33e 62d2 1abd 7069 83be 1418 713e
000000d0: 1d5a 223d 937d 48be d32b 133d e7cc 2bbe
000000e0: df7e 3ebe da1c b93d 1350 37bc 52fa 6bbe
000000f0: 0822 633e e82c de3d ff17 a43e 70fd 893d
00000100: 6f14 583c 69b4 81be a733 95bc 410e 5a3d
00000110: f154 9fbb c1be 48be 5876 abbc 6b13 143e
00000120: 5bdd b33c adec 3f3d ae69 d6bc 27bd dfbc
00000130: e632 a53c 3c8d a33d 6aa0 0bbb 90e4 433d
00000140: f68c 0c3e 3020 34bd bcdf 20be 62e6 dd3c
00000150: 73a3 2dbc 375c 003e 5a42 73bb b571 0c3e
00000160: be90 7c3d 0211 a9bd 491d c73d 085c 853d
00000170: 227f 043b cbfc 893e e3b5 29bd 4e70 6d3d
00000180: 9a40 9c3c cefd 78bc a029 2dbd a6b6 18be
00000190: 93ef 293e b710 26be 58df f73d 4790 473e
000001a0: 07ad 013d 4437 603d 48e3 9eba f6f1 283c
000001b0: e551 d83d 725a 023e 4492 ad3d 6af1 e53b
000001c0: ae43 3fbd f0da b2bd da93 de3c 148b ca3d
000001d0: f75c 2dbd 2f73 f9bd 46ca 3c3c dcf8 53bd
000001e0: 87d7 9fbd cafd 833d aa8b 06be 5ccb 303d
000001f0: 830c c43d 5cf9 bebd fe98 683d 691e f9bb
00000200: d1e5 8a3c b2b7 493e 5ad4 e23a 62a9 8bbd
00000210: 5e18 fd3c e138 05bd 3e75 20bd 9596 d13d
00000220: 73f3 683d 8a3a 1d3d fae6 953e 0e7d 663d
00000230: bb0e 0ebc 85cf 05be 3679 b1bd 74b7 66be
00000240: 773f 693d bfde 85bc 3d64 3bbb bd13 9d3d
00000250: 0a06 51bd 66fc 31bd 5533 87bc 0cdb 3ebd
00000260: 5d47 363e 5f52 ccbd 2ea2 44be b7a9 1e3d
00000270: 7f3d 2e3d a088 3fbd 792c fd3d 1c11 96be
00000280: 951b 213e 6e02 e6bb f2f3 443d 3a12 d7bc
00000290: 9eef ea3c eff8 aa3b 59bf 78be cc64 53bd
000002a0: 4cb4 973d 5c41 3cbd 807d 8c3d 255a 423d
000002b0: a32f 203c b8cc 243e 5b34 ecbb a04e ccbd
000002c0: af3b 31be b647 2b3e 644f 0d3e cd62 be3d
000002d0: a83c b73d eccf 133e 37d4 f83c e4b2 673d
000002e0: 24a1 a7bd 0ab5 1a3e fc1f 473d fdcd 7b3c
000002f0: f090 463e 1e39 573b ba46 af3c 3191 84bd
00000300: 19ad b3bd 928a 4a3e 1977 823d 99b0 67bd
00000310: 757e f53d 02b0 363c a441 073e 8598 8c3c
00000320: 1bf0 19bd 951e 303d a593 813e 4cfa 713e
00000330: 7190 013e c297 d73d ab38 d43d dc92 b4bd
00000340: e077 3bbb 3642 dbbb c8f0 afbb 6c6e 29bd
00000350: 4057 9c3d 95fa ea3c d34b 89bc 8d8c 873c
00000360: 67ee 333e 63b0 9b3d a27a b83d ecd5 73bd
00000370: 3b86 d13c 198f 7fbe 33a3 3a3c a01c a53b
00000380: 827d 59bd b11f 7c3d 7210 aa3d 0526 8b3c
00000390: 3030 b63d 577d dcbc b218 e6bd 18bd 31bd
000003a0: 5344 d83b 70de b53c 026c 223b 1c57 323d
000003b0: 467c 1e3e d242 cc3c c121 e6bc 1953 bdbd
000003c0: 4af6 fbbb 1c62 97bd ae0c 28bc 0947 8f3d
000003d0: b457 a03c 02dc c53d 93da adbd 4d08 efbd
000003e0: b926 debc 1caf abbe 1cbb 2e3d c142 6ebd
000003f0: c47c b53c db3e d53d 1b7c 0d3e 5b68 0abd

fc2.bias f4 [128]
0.1434264 -0.049064454 0.11497911 0.09268198 0.046136674 0.14658941 -0.06759774 0.17137589
0.06499739 0.03185728 -0.11071001 -0.06857418 -0.082299426 0.087153874 -0.042357713 0.07183465
-0.010073853 0.1915996 -0.13758957 0.04336658 -0.050547894 0.13969958 0.11156913 0.061219193
-0.08000877 0.14466988 -0.036988806 0.09962967 0.14636302 -0.08434768 -0.17419702 -0.11808179
-0.10718759 0.16857271 -0.02623861 0.07594862 0.13898759 -0.039106485 0.0023370986 -0.034120284
-0.003665284 0.15230449 0.123468146 -0.037878167 -0.0076314597 0.06120122 0.04219284 0.07532892
0.05008993 0.10378301 -0.04467713 0.048295964 -0.06737624 0.12661922 0.11132415 -0.0737967
0.1760001 0.018362898 0.09000783 0.24825987 -0.024533067 0.038456615 -0.13954978 0.16200773
0.036838762 0.106141135 0.1481756 -0.06358878 0.01312519 0.06105628 0.16819282 0.029325759
-0.06136616 -0.10830205 -0.09848471 -0.09804736 -0.073242195 0.020799503 -0.06553423 0.13830173
-0.009482956 0.048167545 0.11516516 0.039946295 0.06429252 -0.028276654 -0.0012743166 0.15290737
0.003355782 0.040606663 0.022139505 0.035668306 -0.06869919 0.15120699 0.11060898 -0.09458234
-0.040104516 -0.03223831 0.17319171 -0.057930157 -0.033854492 -0.08514389 -0.012030217 -0.028209792
-0.056878716 0.16879207 0.109953135 0.040655952 0.103113 -0.061679617 -0.06412621 -0.06309972
-0.003922829 0.051414657 0.036005586 -0.10851934 0.21320054 0.075568646 0.0012330787 0.013181495
-0.0041524414 -0.11766446 -0.065577954 -0.055041846 0.049504723 -0.09399261 0.005520016 0.020135343
00000000: 5fde 123e cff7 48bd 2b7a eb3d 0dd0 bd3d
00000010: cff9 3c3d 891b 163e af70 8abd 297d 2f3e
00000020: 5a1d 853d c77c 023d eebb e2bd 9f70 8cbd
00000030: 9a8c a8bd bb7d b23d 487f 2dbd 0c1e 933d
00000040: cd0c 25bc af32 443e 48e4 0cbe 28a1 313d
00000050: 4f0b 4fbd 680d 0f3e 5b7e e43d fac0 7a3d
00000060: a3db a3bd 5724 143e 9381 17bd a40a cc3d
00000070: 30e0 153e 7abe acbd b460 32be ded4 f1bd
00000080: 2b85 dbbd 539e 2c3e 5af2 d6bc f38a 9b3d
00000090: c352 0e3e 1f2e 20bd 022a 193b b6c1 0bbd
000000a0: 4335 70bb b5f5 1b3e dedc fc3d 2326 1bbd
000000b0: 5311 fabb 21ae 7a3d 66d2 2c3d 0c46 9a3d
000000c0: 192b 4d3d 308c d43d 5eff 36bd fdd1 453d
000000d0: 8efc 89bd 78a8 013e eafd e33d b922 97bd
000000e0: 5f39 343e ca6d 963c 0656 b83d d637 7e3e
000000f0: 92f9 c8bc af84 1d3d 23e6 0ebe 5be5 253e
00000100: 3ee4 163d 8660 d93d 58bb 173e d63a 82bd
00000110: 090b 573c 2616 7a3d bd3a 2c3e 933c f03c
00000120: 155b 7bbd 77cd ddbd 5ab2 c9bd 0ecd c8bd
00000130: 0100 96bd b863 aa3c cf36 86bd f89e 0d3e
00000140: 665e 1bbc 554b 453d b6db eb3d ba9e 233d
00000150: ccab 833d 71a4 e7bc f806 a7ba c093 1c3e
00000160: aeec 5b3b 2c53 263d e85d b53c ee18 123d
00000170: 29b2 8cbd 01d6 1a3e f686 e23d 63b4 c1bd
00000180: a244 24bd 510c 04bd 2b59 313e 2c48 6dbd
00000190: 02ab 0abd eb5f aebd 631a 45bc 3918 e7bc
000001a0: a8f9 68bd d4d7 2c3e 1c2f e13d db86 263d
000001b0: e92c d33d c4a3 7cbd 9a54 83bd 6d3a 81bd
000001c0: 138b 80bb 2d98 523d 987a 133d 633f debd
000001d0: 3e51 5a3e bcc3 9a3d 419f a13a 32f7 573c
000001e0: 3411 88bb 10fa f0bd bc4d 86bd 8f73 61bd
000001f0: 77c5 4a3d 337f c0bd 40e1 b43b e0f2 a43c

fc3.weight f4 [10, 128]
-0.0788178 -0.19868456 0.12052822 -0.09744604 -0.04425632 -0.15566547 0.21849668 -0.25251085
-0.025903637 -0.20049249 -0.023936857 -0.09903935 -0.14159758 -0.13939911 0.065254234 0.051097408
0.038355883 -0.06661311 -0.19314931 -0.19421612 0.07905464 0.068020515 -0.012417816 0.18149514
0.087261155 -0.13106456 -0.05480136 -0.0019642548 0.13210858 -0.043305356 0.07518553 -0.08062063
0.0059105363 0.12533614 -0.15966329 0.09033305 0.07897316 0.2595846 0.031170148 -0.25077763
-0.206351 -0.31481963 -0.09375937 0.011683654 0.07416394 -0.0887375 0.107847944 -0.028375626
0.15142556 0.07987296 0.053047527 -0.034947187 0.15446162 0.07675923 -0.10115395 -0.05036494
-0.0277377 -0.18709314 -0.15327448 -0.17404003 -0.037715416 0.042818893 0.076064356 -0.11088569
-0.1252563 0.06371054 0.17041782 0.040159047 -0.19440493 0.07653154 0.09224037 -0.06557723
-0.0031982376 0.32200003 -0.06855948 0.02500899 -0.18269847 -0.021835538 0.017096272 0.14448875
-0.28371546 -0.075685225 -0.13152112 -0.043362275 -0.10463362 0.048917178 0.12855923 -0.13737065
0.10405171 0.007647785 0.17652145 -0.039028082 0.26617026 -0.13436186 0.18104862 -0.05438311
-0.009640836 0.18074936 0.03835619 -0.102478474 -0.12909625 0.022671815 -0.0623575 0.0050270185
-0.030062294 0.17810586 0.0066669774 -0.2845739 -0.30202213 0.22245835 -0.15779822 -0.00057887554
0.18062212 -0.27941644 -0.21199211 -0.3015322 -0.26136547 -0.002397773 0.20250954 0.022940066
0.03349002 -0.44687414 -0.14163439 -0.15585338 -0.1647203 -0.07448357 0.11658729 -0.088294916
0.05942588 0.108413726 -0.29276073 -0.13286094 0.21848963 -0.2650722 0.07036025 -0.17612159
0.14505179 0.13609801 -0.046842903 0.09422302 0.011393848 -0.13179873 -0.3633286 -0.27827075
-0.0013369134 -0.2473919 0.1475616 0.10765071 -0.020369014 -0.13102224 0.12426397 -0.1782553
0.106430545 -0.3872569 -0.0069554513 -0.17212646 -0.20354931 0.0028349927 0.11912066 0.17678338
0.029480359 -0.04596786 0.16857861 -0.29454604 0.039725713 -0.2202744 -0.06443175 -0.05550649
-0.028765416 0.03793484 0.12731804 -0.17089851 -0.040291056 -0.17909323 -0.28386506 -0.22863771
0.24173193 -0.06821375 -0.17029655 -0.060758434 -0.2983968 -0.12179338 0.08581507 0.057446312
-0.12824754 0.06462009 -0.21822874 -0.19598192 0.04866488 0.030773781 -0.28114906 0.045802377
-0.33518764 -0.46353737 0.0872137 0.09362186 0.17234878 -0.22514752 -0.08123367 -0.038371824
0.007146486 0.18587908 0.006329641 -0.16949268 -0.0120904865 -0.08609082 -0.07401208 -0.104726516
0.11961167 0.12243316 0.1263346 0.13784906 0.055714544 0.06618033 -0.21116996 -0.18935947
-0.16291083 -0.3587168 0.083009005 -0.18980412 -0.21216482 -0.23769167 -0.032984473 0.0067958664
0.072761886 -0.09016967 -0.19953804 -0.13637978 -0.0069632293 -0.18203914 0.18349937 0.05523626
0.20302741 -0.04114235 0.038663466 -0.20369352 0.015996734 0.101535894 0.11866994 -0.020224905
-0.0076567237 -0.1085927 0.14041093 0.2123609 -0.26501095 0.11962506 -0.5554611 0.20535675
-0.20717728 0.2068313 0.08781416 0.18603896 0.13093191 -0.0002677708 -0.17928101 -0.012506159
00000000: 3a6b a1bd f773 4bbe 80d7 f63d ca91 c7bd
00000010: 1d46 35bd c566 1fbe 98bd 5f3e 1a49 81be
00000020: dd33 d4bc e74d 4dbe 3a17 c4bc 25d5 cabd
00000030: f5fe 10be a4be 0ebe 03a4 853d 844b 513d
00000040: 0f1b 1d3d 746c 88bd efc8 45be 97e0 46be
00000050: 66e7 a13d 574e 8b3d 1874 4bbc ddd9 393e
00000060: fab5 b23d ca35 06be 6477 60bd baba 00bb
00000070: 7947 073e f560 31bd dffa 993d 6e1c a5bd
00000080: 2cad c13b 1e58 003e c67e 23be 8900 b93d
00000090: aebc a13d 46e8 843e 8a58 ff3c ed65 80be
000000a0: ad4d 53be 0a30 a1be ea04 c0bd cc6c 3f3c
000000b0: 44e3 973d 02bc b5bd 62df dc3d 0074 e8bc
000000c0: 4d0f 1b3e 6f94 a33d 5d48 593d c824 0fbd
000000d0: 302b 1e3e f133 9d3d cd29 cfbd 784b 4ebd
000000e0: 2c3a e3bc 5895 3fbe fcf3 1cbe 8d37 32be
000000f0: 7b7b 1abd dd62 2f3d a1c7 9b3d 0918 e3bd
00000100: 3043 00be ac7a 823d 0282 2e3e d07d 243d
00000110: 1612 47be 91bc 9c3d 85e8 bc3d 5b4d 86bd
00000120: 8699 51bb 30dd a43e ea68 8cbd a7df cc3c
00000130: 4f15 3bbe 71e0 b2bc 7b0d 8c3c dcf4 133e
00000140: 2743 91be db00 9bbd 79ad 06be a49c 31bd
00000150: 274a d6bd 615d 483d 08a5 033e e4aa 0cbe
00000160: 1019 d53d 459a fa3b 0ac2 343e e9db 1fbd
00000170: 7847 883e 2896 09be cf64 393e d3c0 5ebd
00000180: 99f4 1dbc 5c16 393e 611b 1d3d 3ce0 d1bd
00000190: cf31 04be 3eba b93c 946a 7fbd b0b9 a43b
000001a0: 3345 f6bc 6261 363e a976 da3b acb3 91be
000001b0: a5a2 9abe 1fcc 633e db95 21be aebf 17ba
000001c0: 01f5 383e ac0f 8fbe 7614 59be 6e62 9abe
000001d0: b2d1 85be f523 1dbb a95e 4f3e ceec bb3c
000001e0: d52c 093d b0cc e4be 9b08 11be 0798 1fbe
000001f0: 70ac 28be d88a 98bd 51c5 ee3d f7d3 b4bd
00000200: 8d68 733d 0408 de3d bce4 95be b30c 08be
00000210: bfbb 5f3e 8bb7 87be 0919 903d 3859 34be
00000220: 7588 143e 475d 0b3e 58de 3fbd 00f8 c03d
00000230: 43ad 3a3c 3ff6 06be 3506 babe 8179 8ebe
00000240: 5f3b afba 4d54 7dbe 631a 173e fa77 dc3d
00000250: ebdc a6bc b22a 06be 1c7e fe3d 8f88 36be
00000260: 42f8 d93d 8946 c6be 8eea e3bb eb41 30be
00000270: 3b6f 50be 49cb 393b 88f5 f33d b406 353e
00000280: cb80 f13c cb48 3cbd df9f 2c3e bdce 96be
00000290: 6eb7 223d 9d8f 61be cbf4 83bd c65a 63bd
000002a0: 73a5 ebbc 9061 1b3d a95f 023e 0500 2fbe
000002b0: 3c08 25bd 3764 37be c356 91be 0120 6abe
000002c0: 9388 773e a7b3 8bbd 3862 2ebe d6dd 78bd
000002d0: 77c7 98be cf6e f9bd d0bf af3d d34c 6b3d
000002e0: 5353 03be 8a57 843d 5b77 5fbe 7caf 48be
000002f0: d354 473d 4c19 fc3c c5f2 8fbe 469b 3b3d
00000300: b79d abbe c554 edbe 199d b23d d1bc bf3d
00000310: 337c 303e 128d 66be d75d a6bd c62b 1dbd
00000320: 122d ea3b 1657 3e3e e168 cf3b 7d8f 2dbe
00000330: 2d17 46bc 6250 b0bd a593 97bd db7a d6bd
00000340: f7f6 f43d 3dbe fa3d db5d 013e 4e28 0d3e
00000350: ef34 643d 8e89 873d f03c 58be 73e7 41be
00000360: 19d2 26be baa9 b7be a000 aa3d 035c 42be
00000370: bc41 59be 7265 73be ba1a 07bd dcaf de3b
00000380: 2f04 953d e0aa b8bd b353 4cbe 24a7 0bbe
00000390: cd2b e4bb 7868 3abe 42e7 3b3e 6b3f 623d
000003a0: 6be6 4f3e e184 28bd 955d 1e3d 0995 50be
000003b0: 950b 833c 0df2 cf3d 3a09 f33d b3ae a5bc
000003c0: 41e5 fabb d965 debd e2c7 0f3e 2375 593e
000003d0: 84af 87be fcfd f43d b332 0ebf 0a49 523e
000003e0: 4826 54be 96cb 533e e9d7 b33d ff80 3e3e
000003f0: 0413 063e 9763 8cb9 7195 37be a2e6 4cbc

fc3.bias f4 [10]
-0.037984174 -0.10858792 0.05698911 -0.10001665 0.07146204 0.08821345 -0.075022735 -0.14793745
0.08035123 0.13886926
00000000: 4b95 1bbd 5863 debd 6a6d 693d 88d5 ccbd
00000010: b15a 923d 41a9 b43d 85a5 99bd ea7c 17be
00000020: 308f a43d be33 0e3e
